assets/files/telco_churn_model.tflite (tflite, 58848 bytes, 7 tensors)

arith.constant f4 [256]
0.030221295 0.01836439 0.00042830844 0.0039013114 0.0024299247 0.031543758 -0.033206634 -0.0065232213
-0.001794312 -0.0021413642 -0.0076889982 -0.019951101 0.0019823425 -0.009760376 -0.019392775 0.01498404
0.013006251 0.024115989 0.01062517 -0.005622766 0.020259753 -0.009129527 0.00057921687 0.0033800267
-0.023267841 -0.047535688 0.020646498 0.023908896 -0.029335968 -0.015767395 -0.0006609155 0.029290216
-0.014539784 0.027009021 0.019995188 -0.0033909993 -0.02687579 0.044819854 0.015796531 0.012383413
0.03953116 0.010196579 0.0065517453 0.012660736 -0.0062623904 0.0010580933 0.0052453144 -0.009001975
-0.015844448 0.033938356 0.023772245 0.03252317 0.013782652 0.013441244 0.003041591 -0.011512188
0.034252945 0.014152819 0.029780103 -0.0041723233 -0.029326534 0.0013847145 0.021889854 0.02202123
-0.0034945305 0.009672769 -0.034668475 -0.01261769 -0.02117638 0.035511456 -0.0077567925 -0.022759661
0.007907557 0.0070039495 0.016676616 0.007184246 -0.026436104 -0.035148088 -0.014467832 0.0039060405
-0.040014084 0.00091169804 0.059623063 -0.009985111 -0.0066910437 -0.0049618296 0.0026359812 0.029675169
-0.020809289 -0.020129405 0.0020266986 0.009861112 0.007897852 -0.03545964 0.010296058 0.020871013
-0.0009179406 0.03334732 0.027621802 -0.02880641 -0.003461522 -0.00043073078 0.002957956 0.0033655534
0.03622592 -0.002091973 0.019569622 0.025424467 0.004693069 0.002733389 0.05180612 -0.011607274
0.019656071 0.0012990052 0.0041865245 -0.004164192 0.05716306 0.020145034 -0.008896381 0.039717115
0.002354156 0.0067832395 -0.03753464 0.043527916 0.0076178215 -0.019061243 -0.011926844 -0.0052384436
0.044141494 -0.01037645 -0.023260865 0.0122881755 0.01043749 0.028694917 -0.016780498 -0.01450255
-0.011922187 -0.03521589 -0.0048081973 -0.022870168 -0.009252297 -0.02827125 0.00585085 0.015607063
0.018579958 0.022631556 -0.004335015 -0.0146519495 -0.00022921045 0.00030201508 -0.004499245 -4.4859567e-05
0.027921475 -0.041076556 -0.014526385 -0.0114348605 0.025116347 0.0008491481 -0.018006558 0.008107226
0.00050202914 0.003714011 -0.017061917 -0.020474734 -0.013974009 -0.027162556 0.020046674 0.023685295
0.011543192 0.017256863 0.0057652583 0.00623428 0.004926844 -0.006548717 -0.022557266 0.011690818
-0.010110317 -0.005181362 -0.01509102 -0.020920519 0.016761519 0.011860416 -0.011445946 0.012564964
-0.0039221123 0.0379496 -0.04178084 -0.0048088557 -0.015450603 0.015046703 0.036111854 0.002851722
-0.014499538 0.022001946 0.020260641 0.04014887 -0.0023656893 0.013747448 0.018503573 0.005714392
-0.01946298 0.0007883398 0.0064940187 -0.03772566 -0.0037277774 -0.0074991942 0.01912901 0.0045745713
0.004594268 0.012141708 -0.0005430631 -0.003912117 -0.012945681 -0.00090951653 -0.017922537 -0.0035536787
0.044997323 -0.033073716 0.0062153153 -0.01868455 -0.024839668 -0.00012388967 -0.010358364 -0.0430426
-0.029702038 0.007536492 0.029493159 0.0065248995 0.008404478 -0.009056572 -0.0023781941 0.0017233631
-0.02558694 -0.036449626 -0.043957915 0.01537355 -0.00065168797 0.020001827 -0.01279304 0.009196758
-0.014014314 -0.005731629 -0.010022229 -0.0029361907 -0.0126299905 -0.008684252 0.036903434 -0.018361216
-0.042356838 0.0089487005 -0.009705516 0.0005174678 0.0028598174 -0.016508495 -0.05930943 0.02287326
00000000: a692 f73c eb70 963c 968e e039 25ad 7f3b
00000010: 5f3f 1f3b 0734 013d ae03 08bd bfc0 d5bb
00000020: 1f2f ebba 2156 0cbb fef3 fbbb 7e70 a3bc
00000030: 30ea 013b fce9 1fbc 99dd 9ebc 9e7f 753c
00000040: 2c18 553c e58e c53c 3115 2e3c 2e3f b8bb
00000050: c8f7 a53c 0394 15bc 96d6 173a 7083 5d3b
00000060: 339c bebc c8b4 42bd d822 a93c 97dc c33c
00000070: fc51 f0bc a02a 81bc 4a41 2dba 09f2 ef3c
00000080: 4638 6ebc 0642 dd3c f3cc a33c 873b 5ebb
00000090: 9e2a dcbc 0695 373d ba67 813c cce3 4a3c
000000a0: 6deb 213d 8d0f 273c 06b0 d63b fa6e 4f3c
000000b0: bd34 cdbb b8af 8a3a e3e0 ab3b 057d 13bc
000000c0: 37cc 81bc f202 0b3d 03be c23c 0437 053d
000000d0: a2d0 613c aa38 5c3c 6e55 473b 9e9d 3cbc
000000e0: d14c 0c3d 3ae1 673c 67f5 f33c fcb7 88bb
000000f0: 333e f0bc 4f7f b53a 5a52 b33c de65 b43c
00000100: 7e04 65bb 897a 1e3c 8800 0ebd 6dba 4ebc
00000110: 167a adbc 7674 113d b12c febb 7872 babc
00000120: b38e 013c 6381 e53b 669d 883c d369 eb3b
00000130: 8790 d8bc 71f7 0fbd 7c0a 6dbc 7cfc 7f3b
00000140: cfe5 23bd 05ff 6e3a 5037 743d 9798 23bc
00000150: 8b40 dbbb d896 a2bb 6dc0 2c3b 5719 f33c
00000160: 3e78 aabc 6ce6 a4bc 5cd2 043b 8090 213c
00000170: fe65 013c 213e 11bd ccb0 283c b0f9 aa3c
00000180: f3a1 70ba 3397 083d 1e47 e23c 6cfb ebbc
00000190: b4da 62bb b5d3 e1b9 44da 413b 9e90 5c3b
000001a0: a161 143d 7c19 09bb 7950 a03c f946 d03c
000001b0: 51c8 993b a822 333b a732 543d 702c 3ebc
000001c0: c505 a13c 6243 aa3a 1d2f 893b c673 88bb
000001d0: d023 6a3d 3307 a53c 20c2 11bc 6aae 223d
000001e0: 2f48 1a3b f045 de3b ecbd 19bd 544a 323d
000001f0: eb9e f93b 5326 9cbc cf68 43bc 40a7 abbb
00000200: b6cd 343d fc01 2abc 928d bebc 5854 493c
00000210: 0202 2b3c 9a11 eb3c 4177 89bc 1a9c 6dbc
00000220: 4755 43bc 893e 10bd 158e 9dbb 385a bbbc
00000230: f296 17bc 1c99 e7bc 7db8 bf3b c4b4 7f3c
00000240: ff34 983c d065 b93c be0c 8ebb bb0e 70bc
00000250: 3658 70b9 c757 9e39 676e 93bb 9827 3cb8
00000260: 94bb e43c e43f 28bd 1300 6ebc 4859 3bbc
00000270: ccc0 cd3c 5d99 5e3a 7d82 93bc 2cd4 043c
00000280: 9b9a 033a c466 733b 6fc5 8bbc a1ba a7bc
00000290: 3ef3 64bc 0284 debc ec38 a43c aa07 c23c
000002a0: a81f 3d3c 445e 8d3c 7eea bc3b ee48 cc3b
000002b0: 5d71 a13b 9f96 d6bb 04ca b8bc d88a 3f3c
000002c0: bea5 25bc 6ac8 a9bb 5340 77bc 8261 abbc
000002d0: 744f 893c 3152 423c c787 3bbc 47dd 4d3c
000002e0: 1085 80bb 0a71 1b3d 6322 2bbd 9b93 9dbb
000002f0: 8724 7dbc 7286 763c 06ea 133d f5e3 3a3b
00000300: 788f 6dbc 6d3d b43c a5f9 a53c 2473 243d
00000310: ae09 1bbb fa3c 613c ce94 973c cb3f bb3b
00000320: d470 9fbc 97a8 4e3a c7cb d43b 3986 1abd
00000330: ba4d 74bb cdbb f5bb 71b4 9c3c 49e6 953b
00000340: 838b 963b 04ee 463c 595c 0eba 3731 80bb
00000350: 1f1a 54bc 9f6c 6eba 49d2 92bc d6e4 68bb
00000360: 1d4f 383d 4e78 07bd d8a9 cb3b 5710 99bc
00000370: 8f7c cbbc 61e8 01b9 21b6 29bc 704d 30bd
00000380: b051 f3bc adf4 f63b a39b f13c d3ce d53b
00000390: f0b2 093c 0462 14bc 7adb 1bbb 78e2 e13a
000003a0: b49b d1bc 344c 15bd 370d 34bd 58e1 7b3c
000003b0: 0ad6 2aba dfda a33c e699 51bc 00ae 163c
000003c0: 4b9c 65bc 64d0 bbbb 4634 24bc 1b6d 40bb
000003d0: 05ee 4ebc 6548 0ebc 0e28 173d 436a 96bc
000003e0: 5d7e 2dbd 929d 123c e203 1fbc ada6 073a
000003f0: c66b 3b3b d33c 87bc 72ee 72bd b460 bb3c

arith.constant2 f4 [1, 64]
-0.09787614 0.07158194 0.1499383 -0.15726176 -0.21916728 0.14886782 0.090481795 -0.10228065
-0.017800814 0.025121888 0.14165826 -0.14381395 0.108281456 -0.106737465 0.012804222 0.2136152
-0.1944852 -0.20887905 0.021825366 -0.1381551 -0.12224126 -0.1513167 -0.10342474 0.16122834
-0.15563041 -0.19480602 -0.0047400803 0.018751346 -0.18035148 0.109343015 -0.07028887 -0.06742464
0.06758784 0.13747843 0.09479788 0.07588848 0.09692883 0.096573524 -0.05172101 -0.09323811
0.10853562 -0.10194707 0.11281705 0.07867259 -0.045497272 0.07425897 -0.108786 0.12562421
-0.008391152 0.0970272 -0.09968842 -0.063845135 -0.14349583 0.041976295 -0.16047214 -0.16185991
0.0032068829 0.06613815 0.094494335 -0.1322913 0.006319872 0.13855872 -0.01833795 -0.06355899
00000000: 4973 c8bd 8d99 923d 6d89 193e 3a09 21be
00000010: 636d 60be ce70 183e 854e b93d 8478 d1bd
00000020: 03d3 91bc 6bcc cd3c dd0e 113e f743 13be
00000030: abc2 dd3d 2c99 dabd cdc8 513c f1bd 5a3e
00000040: 2127 47be 64e4 55be 1ccb b23c 8878 0dbe
00000050: a059 fabd c4f2 1abe 5ad0 d3bd 0b19 253e
00000060: 945d 1fbe 3b7b 47be ad52 9bbb 6c9c 993c
00000070: 0fae 38be 3bef df3d 9cf3 8fbd ee15 8abd
00000080: 7e6b 8a3d 25c7 0c3e 6425 c23d 6b6b 9b3d
00000090: 9f82 c63d 57c8 c53d 69d9 53bd 9ff3 bebd
000000a0: ec47 de3d a0c9 d0bd a00c e73d 181f a13d
000000b0: 595b 3abd 1615 983d 32cb debd a2a3 003e
000000c0: 0b7b 09bc 32b6 c63d 7129 ccbd 3dc1 82bd
000000d0: 92f0 12be 56ef 2b3d cf52 24be 9bbe 25be
000000e0: 912a 523b 7073 873d 3f86 c13d 5f77 07be
000000f0: ee16 cf3b 56e2 0d3e 7839 96bc 372b 82bd

arith.constant3 f4 [128]
0.0891935 -0.6714783 -1.2154596 -0.48587263 -1.1044939 -0.3819384 -0.6109628 -1.108313
0.74326324 1.8217647 -1.8154321 0.025438922 -1.6536542 -1.1369702 0.61663353 1.514124
-0.17583814 0.16477616 -1.6829889 -0.5951633 0.109571934 2.3538332 -0.46546468 0.076414086
-0.15680945 -0.09141382 -0.14651217 -0.32116216 0.05989874 0.07275012 -0.15853983 1.4006119
-0.44357774 -0.6647769 0.5634252 -1.1785741 0.92763 -0.67536926 0.23909798 -1.5932363
0.66051805 -0.3527471 -0.4979923 0.5114549 -1.1086643 1.7456313 -0.0108929025 0.14013831
0.55189437 -0.9124123 -0.038860735 -0.83180386 -0.64727306 -0.6165589 0.63121825 -0.64894515
-0.07913551 -0.6170735 -0.19930781 0.1311586 0.17125942 0.03673356 -0.36838558 -1.1997832
-0.5247148 -0.031035138 -1.7510748 0.24219899 -1.2148882 -1.2207667 -0.6343899 -0.5806227
2.1581187 0.030007731 -2.3474147 -0.17564158 -0.12339101 -0.6031723 2.2102435 -0.4093463
0.46474016 0.78346986 -0.87518275 -0.4692943 -0.39810836 0.1941853 0.34152582 0.74086696
-0.22173144 -1.0716413 -0.38605213 0.21457145 0.13714978 -0.3868071 0.83029354 0.61472803
0.32023218 0.19022153 1.3470935 -1.8807029 -1.081382 0.8535176 1.2441176 -1.148327
-0.22023864 0.2793689 -0.02711779 0.9359965 -0.109148994 -0.0050998763 0.066711485 1.437837
-0.30257156 0.70917815 0.070947364 -0.48363787 -1.3957555 -1.0297269 -0.9432036 1.3002939
0.9126767 0.57726413 -1.2293384 2.4852722 0.52871525 0.15148929 0.98350716 -0.85679543
00000000: 15ab b63d 00e6 2bbf 2e94 9bbf 4cc4 f8be
00000010: 0e60 8dbf 6e8d c3be 0f68 1cbf 33dd 8dbf
00000020: 8046 3e3f 962f e93f 1460 e8bf 4965 d03c
00000030: f1aa d3bf 3d88 91bf b2db 1d3f d1ce c13f
00000040: ea0e 34be 15bb 283e 2e6c d7bf 9f5c 18bf
00000050: 4067 e03d 34a5 1640 6351 eebe fd7e 9c3d
00000060: a892 20be 2b37 bbbd 4907 16be 5e6f a4be
00000070: 6258 753d 04fe 943d 4458 22be 4047 b33f
00000080: 9f1c e3be d22e 2abf a23c 103f 84db 96bf
00000090: 2979 6d3f 00e5 2cbf 1ad6 743e 2bef cbbf
000000a0: b617 293f 459b b4be d9f8 febe b5ee 023f
000000b0: b6e8 8dbf d970 df3f 2578 32bc 6b80 0f3e
000000c0: f348 0d3f da93 69bf 6f2c 1fbd 19f1 54bf
000000d0: b0b3 25bf ced6 1dbf 8597 213f 4521 26bf
000000e0: cc11 a2bd 87f8 1dbf 5917 4cbe 714e 063e
000000f0: a15e 2f3e ee75 163d 099d bcbe 7f92 99bf
00000100: b653 06bf 673d febc 3823 e0bf 0303 783e
00000110: 7581 9bbf 1542 9cbf 6067 22bf b0a3 14bf
00000120: 9e1e 0a40 c6d2 f53c 0b3c 16c0 63db 33be
00000130: 6db4 fcbd 8069 1abf a174 0d40 d795 d1be
00000140: 6cf2 ed3e 7b91 483f fa0b 60bf 5847 f0be
00000150: dcd4 cbbe 83d8 463e 79dc ae3e 75a9 3d3f
00000160: 910d 63be 8b2b 89bf a0a8 c5be 9eb8 5b3e
00000170: fe70 0c3e 950b c6be 1e8e 543f d15e 1d3f
00000180: 79f5 a33e 6fc9 423e 8f6d ac3f dfba f0bf
00000190: ba6a 8abf 2180 5a3f 3f3f 9f3f 61fc 92bf
000001a0: 3d86 61be 7109 8f3e 2126 debc 779d 6f3f
000001b0: 8289 dfbd dd1c a7bb 08a0 883d 0b0b b83f
000001c0: a9ea 9abe b38c 353f da4c 913d 629f f7be
000001d0: 1ea8 b2bf 17ce 83bf cb75 71bf 0870 a63f
000001e0: 2ea5 693f 95c7 133f f65a 9dbf b30e 1f40
000001f0: e259 073f 0220 1b3e 20c7 7b3f f256 5bbf

arith.constant4 f4 [64]
-1.1704459 -0.32024688 0.46911603 0.025463028 -1.2305884 1.2770106 -0.41524717 -0.3824046
1.4873155 0.027371679 -0.11413494 -1.337261 -1.116234 0.012210298 0.30276978 -1.2390441
1.0051893 -0.7420552 -0.26510152 0.5664798 0.15669444 0.84575486 -0.9401447 0.26287955
0.05649081 -0.5469678 -1.0139376 -0.42219737 -0.100367576 -0.76779866 -0.4925247 0.22147782
-1.6475325 -1.525904 -0.35335898 1.0128883 1.1699643 -0.049636655 0.2683752 -0.5998529
0.0682871 0.20803474 0.2569025 -0.19848059 -0.11319596 -0.8852786 -0.50599045 -0.9503981
-0.49880254 0.855629 0.106576405 0.12854485 -0.09672847 -0.23709121 -0.18554237 -0.29706126
0.84781474 -0.3629897 0.8170451 -0.29591152 1.4722775 0.9349687 0.5638823 0.5585511
00000000: 2cd1 95bf 66f7 a3be fa2f f03e d797 d03c
00000010: ec83 9dbf 1575 a33f 479b d4be 89ca c3be
00000020: 5b60 be3f 923a e03c 94bf e9bd 5e2b abbf
00000030: c1e0 8ebf b40d 483c a404 9b3e ff98 9ebf
00000040: 0baa 803f 54f7 3dbf 63bb 87be d204 113f
00000050: 8274 203e 6483 583f 53ad 70bf 2698 863e
00000060: e862 673d 1506 0cbf b5c8 81bf 412a d8be
00000070: 848d cdbd 748e 44bf 332c fcbe 15cb 623e
00000080: 58e2 d2bf d350 c3bf 78eb b4be 53a6 813f
00000090: 64c1 953f ce4f 4bbd 7968 893e f68f 19bf
000000a0: 1bda 8b3d 0f07 553e b988 833e 7f3e 4bbe
000000b0: 49d3 e7bd 9ea1 62bf 9788 01bf 4a4d 73bf
000000c0: 0c63 ffbe 810a 5b3f bb44 da3d 43a1 033e
000000d0: 9319 c6bd 0ac8 72be d2fe 3dbe 6a18 98be
000000e0: 630a 593f c9d9 b9be de29 513f b781 97be
000000f0: 9773 bc3f 1c5a 6f3f 975a 103f 34fd 0e3f

tfl.pseudo_qconst i1 [64, 128]
-31 -59 -10 45 63 19 107 113
71 124 4 10 51 77 82 84
-79 58 -102 -9 -26 37 70 56
41 -48 7 31 103 -26 -94 -84
-4 66 -52 55 56 16 77 92
-31 4 84 52 -49 75 13 6
89 -15 -11 34 -68 46 -62 -5
-85 -3 -9 89 20 -32 -89 -37
-96 -64 -76 30 -52 -10 106 1
48 68 37 94 -83 26 -125 -97
-7 77 42 53 -76 -74 112 6
-29 73 45 -119 -14 -15 -88 29
-21 27 36 92 26 -7 -66 41
-69 14 22 34 78 -71 -79 19
119 87 50 117 47 42 7 -73
-1 -73 -84 127 -35 -70 -41 85
5 11 -22 -85 12 -29 15 -54
-38 -113 28 102 13 -76 30 118
81 41 -18 89 68 -53 11 -85
-113 88 10 -22 -43 37 -45 50
-16 -38 101 -14 -58 7 -126 108
-62 -67 -84 -91 61 66 -74 12
-20 -62 -1 -6 94 -85 -20 -35
67 20 -56 6 93 0 92 -85
35 22 -62 14 -6 -37 112 -86
-49 116 -48 -88 22 89 -127 83
53 -82 -77 -41 92 28 11 59
-1 106 -90 78 -10 27 32 -56
68 86 -51 25 70 0 -2 -70
13 -57 84 101 96 -17 102 -32
42 -52 111 86 46 11 -70 95
-84 -22 -115 -51 35 30 -98 38
00000000: e1c5 f62d 3f13 6b71 477c 040a 334d 5254
00000010: b13a 9af7 e625 4638 29d0 071f 67e6 a2ac
00000020: fc42 cc37 3810 4d5c e104 5434 cf4b 0d06
00000030: 59f1 f522 bc2e c2fb abfd f759 14e0 a7db
00000040: a0c0 b41e ccf6 6a01 3044 255e ad1a 839f
00000050: f94d 2a35 b4b6 7006 e349 2d89 f2f1 a81d
00000060: eb1b 245c 1af9 be29 bb0e 1622 4eb9 b113
00000070: 7757 3275 2f2a 07b7 ffb7 ac7f ddba d755
00000080: 050b eaab 0ce3 0fca da8f 1c66 0db4 1e76
00000090: 5129 ee59 44cb 0bab 8f58 0aea d525 d332
000000a0: f0da 65f2 c607 826c c2bd aca5 3d42 b60c
000000b0: ecc2 fffa 5eab ecdd 4314 c806 5d00 5cab
000000c0: 2316 c20e fadb 70aa cf74 d0a8 1659 8153
000000d0: 35ae b3d7 5c1c 0b3b ff6a a64e f61b 20c8
000000e0: 4456 cd19 4600 feba 0dc7 5465 60ef 66e0
000000f0: 2acc 6f56 2e0b ba5f acea 8dcd 231e 9e26

tfl.pseudo_qconst1 i1 [128, 256]
18 -86 65 -90 -4 63 -1 -68
-34 -22 30 -50 40 -36 30 22
-27 39 65 -5 -30 51 -37 -23
0 -28 12 7 75 15 -30 -13
-45 61 -22 -39 60 -2 -64 46
-105 -37 -73 -67 -26 -56 15 -81
14 -22 75 -52 56 -5 -24 -44
-9 12 -94 87 82 21 -92 64
96 -16 -8 -21 -50 -47 28 -62
6 -83 63 -12 14 64 35 -6
26 -18 -71 14 58 81 36 34
-7 -57 -61 79 -36 -52 -81 -95
62 100 -17 -45 -37 -49 -88 -45
-34 -21 63 79 55 -84 -45 -31
67 -83 33 22 18 -9 -34 -10
-73 6 -43 -43 18 7 -5 -14
-43 82 13 15 41 -66 2 70
-53 59 112 -22 -69 8 -34 10
65 23 -29 39 -66 -52 -41 94
-22 70 45 -25 26 -17 31 -58
53 60 -73 36 63 -30 24 -46
-17 34 50 -76 35 54 27 49
-31 -1 -1 50 -11 -19 -11 -41
41 36 -48 -28 51 46 75 -82
70 -51 20 10 71 -127 65 -83
15 7 38 109 43 40 -46 -24
12 -44 27 -22 -36 39 90 61
-42 -73 5 23 -27 -12 56 -64
-2 -58 18 -52 -30 15 -78 80
-53 73 -7 77 -102 26 75 -66
-24 47 -30 70 -60 22 -24 115
-80 25 -32 -80 -32 11 19 -10
00000000: 12aa 41a6 fc3f ffbc deea 1ece 28dc 1e16
00000010: e527 41fb e233 dbe9 00e4 0c07 4b0f e2f3
00000020: d33d ead9 3cfe c02e 97db b7bd e6c8 0faf
00000030: 0eea 4bcc 38fb e8d4 f70c a257 5215 a440
00000040: 60f0 f8eb ced1 1cc2 06ad 3ff4 0e40 23fa
00000050: 1aee b90e 3a51 2422 f9c7 c34f dccc afa1
00000060: 3e64 efd3 dbcf a8d3 deeb 3f4f 37ac d3e1
00000070: 43ad 2116 12f7 def6 b706 d5d5 1207 fbf2
00000080: d552 0d0f 29be 0246 cb3b 70ea bb08 de0a
00000090: 4117 e327 becc d75e ea46 2de7 1aef 1fc6
000000a0: 353c b724 3fe2 18d2 ef22 32b4 2336 1b31
000000b0: e1ff ff32 f5ed f5d7 2924 d0e4 332e 4bae
000000c0: 46cd 140a 4781 41ad 0f07 266d 2b28 d2e8
000000d0: 0cd4 1bea dc27 5a3d d6b7 0517 e5f4 38c0
000000e0: fec6 12cc e20f b250 cb49 f94d 9a1a 4bbe
000000f0: e82f e246 c416 e873 b019 e0b0 e00b 13f6

sequential_3_1/dense_12_1/MatMul i1 [256, 30]
-72 40 -23 50 73 37 -72 94
55 0 -127 -124 -47 61 -97 -99
-90 91 -62 75 80 -125 108 33
103 88 34 -12 63 -78 -17 12
112 16 60 41 70 -41 -31 125
-94 -95 55 15 29 -33 104 4
-109 58 -66 -18 -2 -80 127 -42
43 -115 84 116 110 5 -6 107
-69 -5 54 -90 116 45 1 -79
50 20 -47 127 7 53 76 -99
64 56 11 -109 -83 -110 58 65
-108 124 18 13 17 -95 82 -53
52 -50 -1 -71 -80 100 -38 -21
-85 104 65 26 -15 -127 -20 77
109 75 -11 -28 56 78 11 87
-88 86 64 77 -44 71 90 -5
11 -87 -47 37 86 -17 83 74
-38 -76 82 2 -32 67 28 -25
63 127 -58 -45 -10 -70 55 -80
98 29 52 -81 62 70 -24 -17
105 -115 -127 33 20 -12 -4 -59
-31 102 -23 -45 -93 -8 99 -58
-66 5 -12 84 9 -17 100 35
80 -84 105 48 -127 116 -15 -78
32 -80 -31 -94 47 -7 -14 -97
-89 118 22 24 67 45 -25 33
85 -33 -23 -5 -74 21 -115 72
127 -51 65 50 -40 64 -53 82
43 45 -73 -73 59 108 117 -65
-62 -112 -26 79 8 30 93 27
10 -44 84 88 51 4 -88 127
-62 -112 -120 -63 15 -17 92 -117
00000000: b828 e932 4925 b85e 3700 8184 d13d 9f9d
00000010: a65b c24b 5083 6c21 6758 22f4 3fb2 ef0c
00000020: 7010 3c29 46d7 e17d a2a1 370f 1ddf 6804
00000030: 933a beee feb0 7fd6 2b8d 5474 6e05 fa6b
00000040: bbfb 36a6 742d 01b1 3214 d17f 0735 4c9d
00000050: 4038 0b93 ad92 3a41 947c 120d 11a1 52cb
00000060: 34ce ffb9 b064 daeb ab68 411a f181 ec4d
00000070: 6d4b f5e4 384e 0b57 a856 404d d447 5afb
00000080: 0ba9 d125 56ef 534a dab4 5202 e043 1ce7
00000090: 3f7f c6d3 f6ba 37b0 621d 34af 3e46 e8ef
000000a0: 698d 8121 14f4 fcc5 e166 e9d3 a3f8 63c6
000000b0: be05 f454 09ef 6423 50ac 6930 8174 f1b2
000000c0: 20b0 e1a2 2ff9 f29f a776 1618 432d e721
000000d0: 55df e9fb b615 8d48 7fcd 4132 d840 cb52
000000e0: 2b2d b7b7 3b6c 75bf c290 e64f 081e 5d1b
000000f0: 0ad4 5458 3304 a87f c290 88c1 0fef 5c8b
